sherpa-onnx-streaming-zipformer-en-2023-06-26/joiner-epoch-99-avg-1-chunk-16-left-128.int8.onnx (onnx, 259416 bytes, 2 tensors)

output_linear.bias f4 [500]
00000000: 93b3 b83c f88d 2dbe b5e8 2cbe b3ba 423d
00000010: bd19 343d 62ff 953d 07ce 8f3d c89c 123c
00000020: 2191 2b3c c336 abbb 6828 5f3d aaca 213d
00000030: 31c3 5d3d d6c6 473d 69f1 04bd b586 1a3d
00000040: 1d99 503d e30f 363d 3187 303d 7d48 c13c
00000050: cb3e 9f3d ce5a 303d c74e 843d 609d 5f3c
00000060: 3488 a53d 3281 133d 0225 943c ae5d 8c3d
00000070: 37d8 b73d 741e bf3b d86b 7e3c a08b 6a3c
00000080: cd91 a03c 1e7c 5d3c 59cd 203e 8c39 763d
00000090: 5c47 413c db4a 3b3d dcbe 183c 9211 813d
000000a0: 34c2 f7bb e46d 2d3d 8418 013d dd2c 5b3c
000000b0: 985c dd3c 5459 a83d 54b1 98bc e3cd 063c
000000c0: 105f 18bc 6721 193d ee4b 103c cce9 573d
000000d0: c53a e13c bea3 3b3c b9ce a43d dc5b 9a3b
000000e0: 6cf1 613d c213 133c f99a 0fbd 48cc 893d
000000f0: 736d 883b 5424 4bbd f4a7 e2bb 33dc dc3c
00000100: 8c4b 0a3d 0a89 a83d 1903 27bd 8e80 85bb
00000110: 1673 94bd 5011 0039 6b58 43bb 0e6e 5dbb
00000120: e093 22bc 19b7 89bc 4de4 eb3c b47b 7e3c
00000130: c240 65bc d28f c6bc 6ec7 6e3c 315c 85bc
00000140: 266e 7a3d 6b9f a9bb 9b07 19bc 4e40 35bd
00000150: 5e42 0c3b 30f5 f3bb e3f0 7d3d 5c9e 40bc
00000160: 9eb8 51bc 086c 5c3c f245 2dbd a869 22bd
00000170: 9659 10bd 908e e0bc 83c3 da3c 0ff1 02bd
00000180: c9b6 2cbd 0c3f 03bd 964f 073d 90b6 ffbb
00000190: 9e1f fe3c 9afd 2dbc 5288 c6bc 3978 9dbc
000001a0: 0453 4ebc 2f83 093c 0643 453a fcb3 8bbc
000001b0: 4a7f 853c e478 0a3d 58b0 67bc 53ba 26bc
000001c0: 9e3c d1bc 7915 1ebd 6fd0 4e3b 6225 b4ba
000001d0: c613 16bd a352 933c 3681 293c d005 743d
000001e0: dbd5 9f3c caee c63c a809 4d3d 1cf0 2bbd
000001f0: f8e2 42bc b74e 8dbb 688e 273c 2061 f23c
00000200: b669 9fbc bae3 153d de17 13bd f84d c4bc
00000210: d80e a03c 1203 103b 858e 843c 5c1c 12bd
00000220: 6b89 21bd 06fd e43b 7ec7 6ebd 18ad 093d
00000230: 82c3 9bbb 860a 14bc 8810 1dbc eef3 c2bc
00000240: 3c62 4ebd fe90 2cbd 4abe bebd 04ed 8e3c
00000250: 8fa6 20bd fee7 a4bc 669d b8bc 4795 1fbd
00000260: 3a19 b33c d4b8 2a3c 24e8 ea3c b305 8ebd
00000270: 4037 2ebb 1c01 f9ba 7d2b a43c 04e1 acbc
00000280: 2a0d 81bd e607 c23c 4a06 f2bc 15ee 07bd
00000290: 8460 b9bc 1ed3 0dbd 63e8 333d 1842 693d
000002a0: 1414 573c f031 1dbd a6d5 03bd 3e8b a7bb
000002b0: b60b 7dbd 63c8 93bd b8e1 233c ce72 91bd
000002c0: 89c1 52bd 2f9b 003a b829 87bc 2a85 dfbc
000002d0: 248f 57bc 8d8c 0bbd 7c6e ef3b 1f58 5ebd
000002e0: 6c28 1fbd a0e1 7c3c 08c3 70bd b56a 063c
000002f0: dc66 da3b 7c47 8fbc 1e8d 71bc 9ed8 d3bc
00000300: e0bd 3fbd 96ba c5ba 30b8 04bd b522 7abc
00000310: f243 5cbd c974 d03b 9825 20bd 1a3e a0bc
00000320: 6cd6 53bd 2249 09bd fd6d 01bd 8d04 2abd
00000330: 9cb2 4ebd 50ea 2dbd 886c 4e3c af39 adbc
00000340: b839 afbc f00d 63bd 6857 4ebd b5ce 19bd
00000350: c8ba a03c ecc2 01bc fbbc 90bc cec4 d5bc
00000360: b84e 84bc b987 cdbc 1727 eebc d89b e539
00000370: cefa 97bc a2a3 2ebd 1ee5 a8bc acd7 e03c
00000380: 2234 f4b9 f1ff 2fbd dedf e6ba fe99 10bd
00000390: 969d 07bd 1cea b5bc 9e75 a7bc d0d2 e3bb
000003a0: 7aca 45bd d986 2ebc f00d 183a 1e64 c8bc
000003b0: df49 9aba 8d1b 84bc c57b cdbc 163f 123c
000003c0: 6d88 60bd 8c1d 43bd e09c 6bba 63f1 a13c
000003d0: 4a54 9dbc 503f 43bd 9e2f e6bc f63e ffbc
000003e0: 8439 0dbc 18d3 d3bc 3499 04bd 3bcc 21bd
000003f0: 9e48 91bd ec94 0dbd 50f1 aebc f942 e1bc
0.022546565 -0.16948688 -0.16885646 0.04754133 0.04396986 0.07324101 0.070217185 0.008948512
0.010471613 -0.005225034 0.054481894 0.039499916 0.054141227 0.04877361 -0.03245679 0.037726123
0.05092727 0.044448745 0.04309768 0.023594135 0.07775649 0.043055348 0.06460338 0.013648361
0.08082619 0.036011882 0.018084053 0.068538055 0.089767866 0.0058324877 0.015528642 0.014315516
0.019600773 0.013518361 0.15703334 0.060113475 0.011796799 0.045725685 0.009322848 0.063021794
-0.0075609926 0.042341128 0.03151752 0.013377395 0.027021691 0.08220163 -0.018639244 0.008227798
-0.009300008 0.03738537 0.008807166 0.0527132 0.027493844 0.011452613 0.08047242 0.0047106575
0.05516188 0.008976879 -0.035059903 0.06728417 0.004163438 -0.049595192 -0.006916994 0.026960468
0.033763453 0.08229263 -0.04077444 -0.004074163 -0.072485134 0.0001221348 -0.002980734 -0.0033787522
-0.009922951 -0.01681094 0.028795386 0.015532423 -0.01399249 -0.0242385 0.014573915 -0.016279312
0.061140202 -0.005176475 -0.009340192 -0.04425078 0.0021401863 -0.007445 0.061997306 -0.011756506
-0.012800364 0.013453491 -0.042303033 -0.039651543 -0.035241686 -0.02741173 0.026704555 -0.031968173
-0.042166505 -0.032042548 0.033034883 -0.0078037456 0.031020936 -0.010619545 -0.024234924 -0.019222366
-0.012593035 0.008393093 0.0007524941 -0.017053597 0.016296048 0.033806697 -0.014141165 -0.010176259
-0.0255416 -0.038594697 0.0031557342 -0.0013744051 -0.03663995 0.01798374 0.010345748 0.059575856
0.019511154 0.024283785 0.050058037 -0.041977033 -0.011894934 -0.004312362 0.010226823 0.029587328
-0.019459587 0.03659413 -0.035911433 -0.02396296 0.019538328 0.0021974486 0.01618124 -0.035671577
-0.039437693 0.0069881706 -0.05829572 0.03361234 -0.004753531 -0.009035712 -0.009586461 -0.023797955
-0.050386652 -0.042130463 -0.093136385 0.017447002 -0.039221343 -0.020130154 -0.02253599 -0.03896072
0.021862615 0.010420043 0.028675146 -0.06934681 -0.0026583225 -0.0018997523 0.020040268 -0.02110339
-0.06301339 0.023685407 -0.029544014 -0.033186037 -0.02262903 -0.034625165 0.043922793 0.056947798
0.013127346 -0.038377702 -0.032186173 -0.0051130345 -0.061778747 -0.07215955 0.010002546 -0.071019754
-0.0514541 0.00049059367 -0.016499385 -0.027285177 -0.013156686 -0.034069587 0.007306872 -0.054283258
-0.03885691 0.015434653 -0.058779746 0.008204152 0.006665094 -0.017490141 -0.014743118 -0.025860127
-0.04681194 -0.0015085514 -0.032402217 -0.015267064 -0.053775735 0.006361578 -0.039098352 -0.019560862
-0.05171816 -0.03351701 -0.031599034 -0.041508246 -0.050463304 -0.042459786 0.012599118 -0.02114567
-0.021389827 -0.055433214 -0.050376326 -0.037550647 0.019620314 -0.007920008 -0.017668238 -0.02609482
-0.016150817 -0.025089132 -0.029071374 0.00043794396 -0.01855221 -0.04263652 -0.020617064 0.02744659
-0.0004657815 -0.042968694 -0.0017614325 -0.03530311 -0.03310927 -0.022206359 -0.020441826 -0.006952621
-0.0482888 -0.010652267 0.00058004167 -0.024461802 -0.0011771283 -0.016126418 -0.025083432 0.008926174
-0.054817606 -0.0476356 -0.0008987915 0.019768422 -0.019205231 -0.0476678 -0.028098878 -0.031157952
-0.00861967 -0.025857493 -0.03237267 -0.03950141 -0.07093929 -0.03456585 -0.021355301 -0.027497755

output_linear.weight_quantized i1 [512, 500]
00000000: 0102 02f9 f9f9 1700 fafb 0100 f9fc 01f7
00000010: 0ff2 fb07 ee15 e40c 0201 2702 fe17 010d
00000020: f402 ee0f faf4 ea01 1603 f917 07f0 ef02
00000030: fde0 d5ef f008 0df5 f1fe 11ec 1b0b fd18
00000040: f5fb 03fc f9f4 f801 1d24 fa08 1bfa f31d
00000050: 002a eef1 f806 090c f7e1 06f4 10eb fbed
00000060: 16fb 0ded 0deb 0c0e f718 1eed ede9 0ce2
00000070: 040f 0d0d f5fd 0bf2 01fc f0f7 eb03 0404
00000080: 2515 0b29 0d17 05e5 e804 fd24 25f4 03e3
00000090: ecef ff10 03e0 fb38 f4f3 0fd1 e607 e5eb
000000a0: 17fd f9ee 0a04 16f0 f8fc ee08 1a16 101e
000000b0: e6f5 e5f8 ecec 0af7 17fb fd1f ff21 0604
000000c0: 051a efe4 f103 d600 0708 0df0 f9ff f3fa
000000d0: 06fa d8fd 0403 fbee 17f4 ed19 00f7 1713
000000e0: 0827 070f 19f9 ea20 f5f6 f5e4 0211 1415
000000f0: fb18 0b1b 070b fcf5 062b 15fc 15f5 e203
1 2 2 -7 -7 -7 23 0
-6 -5 1 0 -7 -4 1 -9
15 -14 -5 7 -18 21 -28 12
2 1 39 2 -2 23 1 13
-12 2 -18 15 -6 -12 -22 1
22 3 -7 23 7 -16 -17 2
-3 -32 -43 -17 -16 8 13 -11
-15 -2 17 -20 27 11 -3 24
-11 -5 3 -4 -7 -12 -8 1
29 36 -6 8 27 -6 -13 29
0 42 -18 -15 -8 6 9 12
-9 -31 6 -12 16 -21 -5 -19
22 -5 13 -19 13 -21 12 14
-9 24 30 -19 -19 -23 12 -30
4 15 13 13 -11 -3 11 -14
1 -4 -16 -9 -21 3 4 4
37 21 11 41 13 23 5 -27
-24 4 -3 36 37 -12 3 -29
-20 -17 -1 16 3 -32 -5 56
-12 -13 15 -47 -26 7 -27 -21
23 -3 -7 -18 10 4 22 -16
-8 -4 -18 8 26 22 16 30
-26 -11 -27 -8 -20 -20 10 -9
23 -5 -3 31 -1 33 6 4
5 26 -17 -28 -15 3 -42 0
7 8 13 -16 -7 -1 -13 -6
6 -6 -40 -3 4 3 -5 -18
23 -12 -19 25 0 -9 23 19
8 39 7 15 25 -7 -22 32
-11 -10 -11 -28 2 17 20 21
-5 24 11 27 7 11 -4 -11
6 43 21 -4 21 -11 -30 3
